deployment/conv_micro/conv_float_model.tflite (tflite, 954776 bytes, 6 tensors)

Conv2D_1_bias f4 [64]
00000000: 5357 fcb9 dbf7 2c3b a926 7a3d 113c 1dbb
00000010: 82a7 94b9 668e c4bb e0a9 97bb 2f6f 0a3e
00000020: 9875 ca3c 630b 1dba 29bf f2b9 5659 04bb
00000030: c713 8fbb d962 e6bb 02a7 03bb 1a1a 13bc
00000040: fbdc 4bba 2044 a1ba a2d0 66bb 4d1c f5ba
00000050: 89ff feba 82e5 cc3d a95f 8d3d 757f 3f3e
00000060: 8f56 f03c 1713 dcba db7d 133b 689c 9eba
00000070: ac9b 5fbb 25f7 f13c f400 87bb 1aab 08bb
00000080: 2cd0 a4bb 8f1e b8bb 54be 123d 2f2a 803c
00000090: f397 52bb c95a 9b3a 6159 bbbb 5c25 c5ba
000000a0: 41e5 46bb 194a 5ebc 29df 02bc 686c 92ba
000000b0: f1f6 683a 2775 28ba 9aa7 543c 362d 9b3c
000000c0: 08c3 21ba 17c0 1fbb f82e 2abb 406f c0bb
000000d0: f0ba a7ba 7825 a2bb ada0 93bb 5d2c c0ba
000000e0: 8256 a0bb c670 3a3b ba8e b9ba 086f 03b9
000000f0: ee99 70bb 368f 2abb 3370 85ba b73f 65bb
-0.00048130247 0.002639285 0.061072025 -0.0023992101 -0.00028353563 -0.0059984205 -0.004628405 0.13518976
0.024714276 -0.00059907715 -0.00046300262 -0.002019485 -0.0043663713 -0.0070308265 -0.0020088558 -0.008978391
-0.0007776764 -0.0012303628 -0.003521957 -0.0018700451 -0.0019454818 0.10004713 0.06903011 0.18700965
0.02933815 -0.0016790357 0.0022505436 -0.0012101056 -0.0034119887 0.029536793 -0.0041199867 -0.0020853938
-0.005029699 -0.0056188772 0.035826042 0.015645115 -0.0032134026 0.0011852618 -0.005717442 -0.0015041041
-0.0030349048 -0.013567471 -0.007987776 -0.0011171224 0.0008886895 -0.00064261485 0.012979412 0.018942457
-0.00061707245 -0.002437597 -0.0025967937 -0.005872637 -0.0012796801 -0.0049483143 -0.004505238 -0.0014661659
-0.004893125 0.0028448566 -0.0014156916 -0.00012534496 -0.0036712843 -0.0026025302 -0.0010180533 -0.0034980604

Conv2D_bias f4 [64]
00000000: 105f 2eba a9ea e33c 3d1d 4ab9 d8bd eabb
00000010: b426 7dba fdc5 bd3c 78c9 90bb 27b7 55ba
00000020: 1cad e8b9 92c6 303d 1075 bab9 f3d9 9b3c
00000030: de72 9cba 1922 8eb9 f824 7bba 4d9c 6dba
00000040: 1191 15ba db22 4fba 1bec 223c 9479 27ba
00000050: 2eac 4eba 5c24 31ba b21a 083d d301 0ebc
00000060: a4e5 43b9 7d9f 47ba 0510 653c 7d3b 2cba
00000070: 45cb 75b7 6c58 26ba 7c15 e6b9 00ee 9dbb
00000080: fb35 83ba 772d 7cbb d668 a73d 8558 a53d
00000090: 33f3 82ba b629 0aba 83e0 89b9 e0b6 72bb
000000a0: 3d62 7ab9 fc33 51ba fea5 20bb 3afb 55ba
000000b0: 8308 8f3d 5fc0 bebb 4e86 be3c e25f 7bb7
000000c0: 1f2c a0b7 deb7 e9ba 18f4 0a3d b2bf aabb
000000d0: c771 193d 318c 633b 6903 013d c4b6 bbba
000000e0: 2fcf 22b9 998c 7b3d a567 e2bb e4c4 68b6
000000f0: 5676 7aba ec35 06bb 8063 9b3c f387 35b9
-0.00066517387 0.027821856 -0.00019275113 -0.0071637444 -0.00096569513 0.023165697 -0.004418548 -0.0008152597
-0.00044379465 0.04315812 -0.00035563903 0.019024825 -0.0011936089 -0.00027109755 -0.0009580399 -0.0009064123
-0.00057055155 -0.0007901617 0.009943987 -0.0006388661 -0.0007883933 -0.0006757432 0.033228584 -0.008667427
-0.00018682197 -0.0007615013 0.01398087 -0.0006570144 -1.4650465e-05 -0.00063455733 -0.00043885026 -0.0048196316
-0.0010010594 -0.0038479248 0.08174293 0.080735244 -0.0009990692 -0.00052704976 -0.0002629795 -0.0037035272
-0.00023878455 -0.00079804636 -0.0024513002 -0.0008162741 0.06984045 -0.0058212723 0.0232574 -1.498309e-05
-1.9094032e-05 -0.0017831286 0.033924192 -0.00521084 0.037462022 0.0034721012 0.031497393 -0.0014321436
-0.00015526706 0.06141338 -0.006909328 -3.46853e-06 -0.00095543766 -0.0020478917 0.018968344 -0.0001731215

MatMul_bias f4 [2]
00000000: f170 f5bd ed70 f53d
-0.119844325 0.119844295

final_fc_weights/read/transpose f4 [2, 32000]
00000000: d4b7 6c3b 9f14 893a d16e 9dbc 1ae3 e8bb
00000010: 04f2 fd3a 1097 373c 1518 36bc 2bd7 ce3b
00000020: 4679 d0bb b8ad d438 eb0a dbbb b86a aa3b
00000030: c8bd 88b9 2048 e5bb abaa 9a3b 9ab2 363b
00000040: af35 98bc 9e79 08bc a121 383c 4cde 8aba
00000050: 6ef5 5f3c 7f14 92ba d9ca 5c3c a85d 72bc
00000060: 1c8d 3c3c e70f 41bd 1b80 f0bc 5d61 043c
00000070: 164b 2a3c 0981 cbbb c3db 8e3b 2c43 f6bb
00000080: 7fa6 023a 0766 00bc 0168 033b 9f2c c53b
00000090: a2c4 2dbb 6ef9 123c 3bb9 3ebb 23e0 19bc
000000a0: 94b1 8f3c b60b a3bb 3752 8dba 14a6 0abc
000000b0: 0bfe a4bb ca05 b33b 7d17 1a3a 94dd 17ba
000000c0: 365e 11bc eb89 29bc 3b06 133b 2f1c 243c
000000d0: 6b74 51bb 1de6 873c b503 23bc a392 a93b
000000e0: 0486 8dbc 2401 99bc 1129 fc3b b08f 77bb
000000f0: fcd9 2bbc aa66 7c3c a7df c0bb 3cac 7139
00000100: 5ce8 213c 1168 da3a 804b 34bc be3e 9bbc
00000110: fa72 183c 8415 68bc c68f 95bc 20bf 8abc
00000120: f1a9 493c 346a aabc ecb3 cf3a 01e9 7fbc
00000130: 9fcb ecbb d715 65bc 5f7f 1abc e1cd 3dbb
00000140: 0d44 76bc e36a 7cbb cabf 98bb e7d1 90ba
00000150: 60da 61bc 38e1 5b3b 67f8 7e3b 7927 f3bb
00000160: f02f a7bb 582b a2bc f916 f5bc 442f 033c
00000170: 10c9 0f3c 3341 c53b 2579 4fbb a8d9 0fbb
00000180: 5839 3a3c 772e f73b a654 f3bb 2533 773c
00000190: 3564 8d3b 1888 f1bb e251 0bb9 b471 07bc
000001a0: db0c 0e3c 7b22 983c bb83 bebb b200 703a
000001b0: 6b46 3f3a 277d c5bb b3cf 40bc e914 c2bb
000001c0: 15c5 babc 5bfb ab3a 604c 4b3c 11da ea3b
000001d0: d8c9 e43b eb5a 62bc ed49 21bc 9a43 81bc
000001e0: 51d9 a3bb dced 51bc 70e0 263c 379e 69bc
000001f0: 86f7 23bc 4558 a3bc 22e8 ae3a 2b74 283c
00000200: 16a6 35bc 50bd d2bb e938 c8bb 8b83 5abb
00000210: a2b5 97ba 4064 43bb 2ead d3bb 1d4b f0ba
00000220: 6595 9339 d99a 403a bd91 9f3c b9e9 38bc
00000230: d460 61bc 128f 053c 1c48 143b 221a 473b
00000240: d4d4 29bc 4b82 353c b495 063c 75c1 93bc
00000250: 5a54 143b 734a e63b b1f6 3eba edef 383b
00000260: c1af 063c 3cb6 e9bc ae0c aabc b4e7 153b
00000270: 0d42 5a3a 444a 7dbc e015 073c ef4f 6c3c
00000280: 6365 b03b 547a cf3b 3989 943b 8ce3 20bc
00000290: 7176 8bbb 6228 b63b aade 0b3c 4a94 4dbc
000002a0: 6ff2 b53b 9173 bab9 a1ff f039 3ddf e5bb
000002b0: aedb 26bb 4607 19bc 1aa3 5cbb 7497 a8bb
000002c0: ea5b 4fbc 81c2 a7bb 372a 83bb e3ab 0f3a
000002d0: d46c 3f3c f3b0 e6ba 0fe6 803c 5da9 0cbb
000002e0: 9f7f 25b9 bfd3 aabb 3515 6ebc c8b8 07bc
000002f0: fd9c cbbb 16a6 933c f31c bf39 17a2 40bc
00000300: d698 87bb 44b5 68bb 12e9 413b 4fee 5fbc
00000310: 5ead 17bb 95b9 efba 8a10 9abb 4b4a d4bb
00000320: 58e5 873b 4b33 0d3c 3d6f c33b 7f05 903c
00000330: 46d5 6dbb 522c 9238 2be3 703b 50be 8dbc
00000340: 6226 1c3b 3a29 233b e410 bc3b de5c b5b9
00000350: 0c1d 7abb f437 dbba a0fd 01bc 7ac1 713b
00000360: a477 2c3a 1bf4 0dbc 8c0b 72bc 596b 2cbb
00000370: e4b2 603b d26e 03bc dbe3 98ba 0c4a 843c
00000380: be3a 003c 43a6 74bb 775b fcb8 ccef 9abb
00000390: 6901 6bbc 9280 7f3b a7c5 613c a824 82bb
000003a0: 6cef d7bb 6f8c 1cbc c48e 893c d0fe 833c
000003b0: bea0 4a3c 9a1d bfbb b50f 013c fd8d 833b
000003c0: e3cd 2ebb 4ef5 efbb ad13 05bc c095 1a3b
000003d0: 3c9b ebb9 edae d43a 650e a8bb 0b21 2dbb
000003e0: ac75 6fbc fe13 27ba 5746 a4bb 7ddf 263b
000003f0: 6cf4 57bc 80ca 0e3b e2f1 3b3c 2fb9 1d3b
0.0036120312 0.0010458416 -0.01921788 -0.0071071507 0.0019374494 0.01120545 -0.01111414 0.006312271
-0.006362113 0.000101413054 -0.006684651 0.00520071 -0.0002608134 -0.0069971234 0.0047200522 0.002787745
-0.018580286 -0.008329777 0.0112384865 -0.0010594814 0.013669355 -0.0011145024 0.013476097 -0.014792837
0.0115082525 -0.047134306 -0.02935796 0.008079854 0.010393878 -0.0062104505 0.0043596937 -0.0075153317
0.00049839163 -0.007836825 0.0020051005 0.006017282 -0.0026514907 0.0089706015 -0.0029102105 -0.009391817
0.01754073 -0.0049757613 -0.0010781948 -0.008462448 -0.005035167 0.0054633366 0.0005878134 -0.00057932106
-0.008872559 -0.010347824 0.0022434134 0.010016485 -0.003196026 0.016589219 -0.009949614 0.005174951
-0.017275818 -0.018677302 0.007695325 -0.0037774853 -0.010488983 0.015405336 -0.0058860364 0.00023047713
0.009882059 0.0016663094 -0.011004329 -0.018950816 0.009304756 -0.014165286 -0.018257033 -0.016936839
0.012308584 -0.020802595 0.0015846468 -0.015619517 -0.007226422 -0.013982258 -0.009429782 -0.0028961825
-0.015030873 -0.0038515858 -0.004661535 -0.0011048884 -0.013784975 0.003355099 0.0038905384 -0.007420477
-0.00510215 -0.019796059 -0.02991818 0.0080068745 0.008775964 0.0060197352 -0.00316579 -0.0021949802
0.011366211 0.007543381 -0.0074258624 0.015087877 0.004314924 -0.00737096 -0.00013286577 -0.008266855
0.008670057 0.01857113 -0.0058140433 0.0009155377 0.0007296565 -0.006026882 -0.011768269 -0.005922903
-0.022799054 0.0013121174 0.012408346 0.007167109 0.0069820695 -0.013815622 -0.009844285 -0.015779305
-0.0050002714 -0.012813058 0.010185346 -0.014258913 -0.010007745 -0.019939551 0.0013344327 0.010281603
-0.011086961 -0.006431259 -0.0061103 -0.0033342566 -0.0011574517 -0.0029814392 -0.0064598536 -0.0018332932
0.00028149333 0.0007347293 0.019478673 -0.011286193 -0.013755996 0.008151786 0.0022625988 0.0030380567
-0.010365684 0.011078428 0.008214403 -0.018036583 0.0022633285 0.007027918 -0.00072846847 0.0028219179
0.008220614 -0.028529279 -0.020758 0.0022873702 0.00083258824 -0.015459601 0.0082449615 0.0144233545
0.00538318 0.0063317213 0.00453296 -0.009819876 -0.0042560627 0.005559013 0.008536974 -0.012547562
0.005552582 -0.00035562788 0.00045966826 -0.0070151375 -0.002546053 -0.009340113 -0.0033666552 -0.0051450077
-0.012656191 -0.005119622 -0.004002835 0.000548063 0.0116836615 -0.0017600342 0.0157347 -0.0021463253
-0.00015783169 -0.0052132304 -0.014531423 -0.008283801 -0.006213783 0.018023532 0.00036451928 -0.011757395
-0.0041380925 -0.0035508433 0.0029588384 -0.013667657 -0.0023144106 -0.0018289561 -0.0047016786 -0.006478583
0.004147213 0.008618186 0.0059641884 0.017580746 -0.003629045 6.970078e-05 0.0036756496 -0.017302662
0.002382659 0.00248964 0.005739318 -0.00034592202 -0.0038164286 -0.0016725049 -0.007934004 0.0036889003
0.0006579107 -0.008664156 -0.014773261 -0.0026309101 0.0034286315 -0.008022027 -0.0011664586 0.01614859
0.007826505 -0.0037330545 -0.00012033333 -0.004728293 -0.014343598 0.0038986546 0.013780034 -0.003971655
-0.0065898206 -0.009554966 0.016791709 0.016112715 0.0123674255 -0.005832386 0.00787728 0.004014729
-0.002667301 -0.007322944 -0.008122367 0.0023587793 -0.00044938351 0.0016226448 -0.005128669 -0.00264174
-0.0146154575 -0.00063735235 -0.005013268 0.00254628 -0.013180833 0.002178818 0.011471244 0.0024066677

first_weights/read f4 [1, 20, 8, 64]
00000000: 68cb 2fbc 5d07 05bc 21e4 22bb 3f61 633c
00000010: a943 98bb b3f3 e1bc f659 aa3c 2a10 bdbc
00000020: de25 b4bb ca7c 83bc c082 2f3c a215 f9bc
00000030: 7b42 d1bb 6652 bbba 18b8 c4bc af04 413b
00000040: b05f 323c 0045 b937 ee0e 333c c76e 70bc
00000050: 2095 87bc b6a9 823b c46b 22bb dbd5 52bd
00000060: 7da9 8b3c 07c8 d0bb 26dc 59bb 7959 673a
00000070: 291b 813c b6f8 84bb dcee 6bbb e914 f8bc
00000080: ccde f4bb f8c6 a4bc 89ce 5fbd a522 8b3c
00000090: 643d 7cb9 ad28 113c 9a03 babc 3f22 253c
000000a0: dc18 9cbc 4807 37bc 7829 d73c 8560 a9ba
000000b0: 5807 0038 7871 94bc c7b5 0ebc f127 05bc
000000c0: f599 acbc 4d83 8fbc adc3 34bb 479d 85bb
000000d0: 53ec 223c 3e9c b6bc fb3b 24bc 0079 17bb
000000e0: 3ce5 f63b 7577 233c fc81 50bc 5fa9 8bbb
000000f0: df1e 1fbc af62 95bc 3bb7 b53c fae1 b7bc
00000100: 8ed3 6abb 4201 8b3b 32e6 48bc c8f2 c93c
00000110: 02ee 42bc 5476 06bc 7ccb fdbb 05ef 333b
00000120: 0f52 a13b 14a8 8bbb 65d3 48bb 73bc b23c
00000130: d0bd a0bc f9da 78bb bc92 2cbc 6b05 eebb
00000140: 2138 29bc 695b 8dbc da4c 213b bdcf 17bc
00000150: de44 96bb b9e4 c7bb 6626 e33b 73c9 8cbd
00000160: c386 d23c a5b4 afbc 6a01 b2bc 6307 1cbc
00000170: 8d71 dd3c 98d7 89bc 19fc 38bc e8a2 57bd
00000180: 40a4 04bc 19c4 3e3a 5200 ee3a 81fa e9ba
00000190: ed82 51ba 514f 053a 05e8 e038 71f4 a13b
000001a0: 2cba e53b 1b92 1a3b 3067 3b3d 181c a83a
000001b0: d137 8c3b a233 b83c ba01 d9bb 3b7b e5ba
000001c0: 1f29 a43b 557d a0bc ee45 0ebc 25d8 053d
000001d0: 980d 953b e871 e8bb aedb a8bc 366a c7b8
000001e0: 3f91 aabc 7e05 11bc e40d 00bd 708c 87bb
000001f0: 9772 57bc 5635 15bd 7d1a 1d3b 4988 02bc
00000200: 84ab 97bc 1e04 0d3b f57c 10bc 38a8 97bb
00000210: f2a0 80bc d514 4e3c 7d1f 05bd 375d cbbb
00000220: 9252 a0bb 6d61 803b a4a4 55bc 29cc 12bc
00000230: bbd2 b9bc d9ea 18bc e58c 6dbc 4b01 9138
00000240: 403b da3b b276 4e3a 206a 03bc 398d 05bc
00000250: cdbd bbbb 660b 14bc e54d 84bc e282 4ebc
00000260: b40f 17bc 7abc 73bb 3159 3bbc bdfe c73b
00000270: 0d85 88bb 2f57 9dbc c956 aabb b3d3 87bd
00000280: 1cd5 b9bc baac a1bb 3913 d2bc 63eb d03b
00000290: e06c c6bc 35f0 083c 5a12 5abc 9da7 efbb
000002a0: 4b3f 49bc 3948 a8bc 2516 1c3d e9c9 85ba
000002b0: 720d 133d ce31 f5bc 0934 17bc 4920 e43b
000002c0: 9d5a 3fbc 9cdb 4a3c 5462 4a3c c9ef a3bb
000002d0: a460 9b3c 8f96 4e3a 8121 9ebc 0369 d8ba
000002e0: 31cf 5c3b 86da f7ba 4b2f 8e3b 468c 1b3b
000002f0: e6c9 91bb ebe4 07bd 14ac bfbc f004 edba
00000300: ea8c d8ba b7ed ea3c 9022 5a3c 5111 18bc
00000310: 1739 b5bc e733 c2bc bdac ff3b fb72 05bc
00000320: 7bf9 dbbb 2a6d 2dbc 1b7d 693a e456 e53c
00000330: 4410 83bc db43 31bc 9b25 a7bc b025 9ebb
00000340: 37cf a1bb 4500 4fbb bc41 f2ba 0d44 28bc
00000350: 5a09 9bbc 0a28 e03a 24e2 9e39 8e19 93bc
00000360: 1613 683b 75d5 b2bc a072 613c 1341 a6bb
00000370: e363 8c3c 2a1b 06bc f336 c93b 7140 29bd
00000380: 865d e6bc 9bf0 0d3c c5f8 1a3d 8610 143d
00000390: 2ed8 d2ba 7f70 7ebc ed6e 5bbb ee92 f2bc
000003a0: ceec 9bbb 4b13 56bc c132 093d 6caa 4cbc
000003b0: 1fa0 d53b d9e8 1d3c b814 b63a 32d0 acbc
000003c0: 4171 a83c 6f59 b9bc 61ff 2f3c f938 a5bb
000003d0: d603 0d3b db69 c139 8f49 5ebc c470 c53b
000003e0: c758 92bc 409f 5ebc bbe9 8abc a2e3 c6ba
000003f0: c913 3bbc 2ed1 76bc 98c6 a1bc 3174 5abb
-0.010729648 -0.008119431 -0.0024855214 0.013878166 -0.0046467376 -0.027582025 0.02079485 -0.023078997
-0.005497678 -0.016050715 0.010712326 -0.030405823 -0.006386099 -0.0014291524 -0.024013564 0.0029452255
0.0108870715 2.208585e-05 0.0109288525 -0.014674849 -0.0165506 0.0039875163 -0.0024783472 -0.05147348
0.017048592 -0.0063715014 -0.003324279 0.0008825283 0.015760021 -0.004057969 -0.0036000526 -0.030283408
-0.0074728485 -0.020114407 -0.054640327 0.016984293 -0.00024055463 0.0088597955 -0.022706795 0.010078966
-0.019054823 -0.01117117 0.026264891 -0.0012922442 3.0524418e-05 -0.018120512 -0.008710331 -0.008127199
-0.021069506 -0.017518664 -0.0027582452 -0.004077587 0.009944039 -0.022291299 -0.010024066 -0.0023112893
0.007534651 0.009977211 -0.012726303 -0.004262134 -0.00971195 -0.018235533 0.022182098 -0.022446621
-0.0035831663 0.0042420933 -0.012261914 0.0246519 -0.011897566 -0.008206923 -0.0077452045 0.00274557
0.004923112 -0.00426198 -0.003064358 0.021818375 -0.01962176 -0.0037972315 -0.010533031 -0.0072638295
-0.010328324 -0.017255502 0.0024612457 -0.009265837 -0.0045858463 -0.006100264 0.0069320677 -0.06874361
0.025699025 -0.021448443 -0.02172919 -0.0095232455 0.027031684 -0.016826436 -0.0112905735 -0.052645594
-0.008095801 0.00072771456 0.0018158054 -0.0017851145 -0.0007992227 0.00050853664 0.00010724369 0.0049424698
0.007010719 0.002358562 0.045752704 0.0012825755 0.004279115 0.022485558 -0.0066225203 -0.0017508039
0.005009785 -0.019591013 -0.008683665 0.032676835 0.0045487396 -0.007093657 -0.020612564 -9.508843e-05
-0.020821212 -0.008851407 -0.031263247 -0.0041366145 -0.013149879 -0.03642782 0.0023972087 -0.007967063
-0.018514402 0.0021517347 -0.008818855 -0.0046282075 -0.015701745 0.012578209 -0.032500733 -0.0062061804
-0.0048926556 0.003917864 -0.013039742 -0.008959808 -0.022683492 -0.009333336 -0.014498924 6.9143796e-05
0.006659895 0.00078759633 -0.008020908 -0.008151346 -0.005729413 -0.009035921 -0.016150424 -0.012604447
-0.0092200525 -0.0037191198 -0.011434839 0.006103365 -0.0041662515 -0.019206611 -0.005198334 -0.06632175
-0.022684626 -0.0049339207 -0.025643932 0.0063757165 -0.024221838 0.008358051 -0.013310039 -0.007313682
-0.012283157 -0.020542251 0.038107056 -0.0010207269 0.035901494 -0.029930975 -0.009228715 0.0069618565
-0.011679319 0.0123814605 0.012352545 -0.00500295 0.01896698 0.00078807113 -0.019303085 -0.0016510788
0.0033692832 -0.001890973 0.004339134 0.0023734733 -0.004449117 -0.033177298 -0.023397483 -0.0018083137
-0.0016521488 0.028677804 0.013313904 -0.009281472 -0.02212195 -0.02370639 0.0078025744 -0.008145089
-0.00671309 -0.010585109 0.0008906887 0.027995534 -0.015998967 -0.010819401 -0.020403674 -0.00482627
-0.004938032 -0.0031585854 -0.0018482725 -0.010270131 -0.018925358 0.0017101776 0.00030304596 -0.017956521
0.0035411767 -0.0218303 0.013760239 -0.0050736754 0.017137473 -0.008185187 0.0061405837 -0.04132122
-0.028120767 0.008663322 0.0378349 0.03614857 -0.0016086155 -0.015529751 -0.0033482865 -0.029611077
-0.004758454 -0.013066123 0.03349567 -0.012491804 0.006519332 0.009638035 0.0013891673 -0.021095369
0.020561816 -0.022625653 0.010742039 -0.005042192 0.002151718 0.00036890697 -0.013567342 0.0060254056
-0.017864598 -0.013587773 -0.016957154 -0.0015174041 -0.011418291 -0.015064521 -0.019748017 -0.0033333416

second_weights/read f4 [64, 10, 4, 64]
00000000: aed8 fa3b 60a3 cfbb fd2f 86bc 8469 303b
00000010: e398 12bb 6d10 953b 3d7c 6abc ea9a 783b
00000020: 52e2 7fbb 1c48 07bc c556 463c 777d 5ebc
00000030: 5182 10bc e80a 8c3a b04c a3bc e971 3c3c
00000040: ab5a 18bb 4e62 55bb 5368 853c 43c9 1fba
00000050: 5f0a 7dbb 53de f9bb a028 e93a 848a c2bb
00000060: 5b10 d9bb dd5e 2ebc ad73 073b 1450 d73b
00000070: a926 29ba 1f2d b23b 6f5c 25bb ebbf 11bc
00000080: bce0 0cbb b3b7 84bc 9035 4c3b d4a2 be3a
00000090: 3ba9 30bc 84b9 2a3b 7c95 5b3c 7773 0b3c
000000a0: 2401 853b a0ec b039 ef27 113c a187 233c
000000b0: 2cd1 5fbc 0ff1 df3b be69 b73a b0d6 1abb
000000c0: 2fb1 c03b f257 fcba 41db e9ba cd82 2f3b
000000d0: 0c94 453b 0ad7 fe3a 5476 cbbb 02b9 2d3c
000000e0: c048 ea3b 031f 0ebc a836 70bc 8e68 4c3c
000000f0: 6c3e 91bb 7484 9dbb b6e6 573c a052 5bbb
00000100: 7ed6 8ebc 6e79 24bb c19c 10ba efa6 b8bb
00000110: 0359 25bc 038e 07bb c1bc 7f3b 02f2 943c
00000120: daf7 253c f02b 34bc 58ba 2cbb 9c42 353b
00000130: d114 423b 8397 0cbb d4d7 26bc b536 1c3b
00000140: 537d f7bb 40e3 b83b b83f f93b 8cb9 86bc
00000150: 2fd0 973c e5ce 28bc 604e 5e3c cc6f 1dbc
00000160: 5a94 953c 1655 7bbb ef54 9dbc fc28 07bc
00000170: f84f b4bb 1c37 43bc b919 a13c 25d9 303c
00000180: 6d91 32bb ca8a 013c 0a17 c33a bfda 023b
00000190: de56 cfbb eee2 9439 c255 ac3b a468 6ebb
000001a0: ff50 4e3b 64f7 89ba 1eee a6bc 58c1 02bc
000001b0: a787 69bc 74fd 1b3a e231 7b3b 7f74 0bbc
000001c0: 05d9 2fbc 4be8 2fba 0443 98bc b00b 1e3a
000001d0: 65c3 35bc 7605 42bb 0d88 da3b 662a 11bb
000001e0: c471 14bb dc5b 473c fd58 313b ad7d 01bb
000001f0: 8948 af3b 1987 73bc 92ef af3b 4ae0 56bc
00000200: 554c 123c 49eb 123c 3d8c 823c aad3 53bb
00000210: 4ad6 bb3a c6f1 563a 5a55 803b 6b25 16bc
00000220: 7e27 67bb 29c7 cf3a cd01 79b9 8dce 7fbc
00000230: ad31 4fbb 10b8 483c 1bd2 d53b c2e2 893b
00000240: fdf8 92bb e49e 1d3c b26e d03b 5325 913b
00000250: 8a9c b03b 350c e03a 47d0 253c 4aa8 00bc
00000260: 93f5 a03c 7a74 3a3c 6d29 10bc 86b3 03bc
00000270: a2ee a93b 8051 bbbb 8f21 8a3c b00d 0dbb
00000280: 0c80 17bb bd03 b2bb 2eb1 163c 64b7 803c
00000290: b34d 3e3c 92a5 583c f0fd 0d3b d546 08bb
000002a0: d914 01bc afa0 243c da2e f13a f90f 14ba
000002b0: 82f7 0abb 1390 ddbb 1317 74bb 378b aabb
000002c0: 9798 c33b c2c7 9d3b d85c e5ba c106 883a
000002d0: 4382 67bc 23b0 113c 2de7 053c 662d 08bc
000002e0: 2189 45bb fd2d e4bb 2e34 44bc 0b2c b2bb
000002f0: 8294 2abb c2e9 613b c72e 163b 538e c2bb
00000300: 6bcb 6abc 03b8 55bc df45 493c aeb5 22bc
00000310: 9d3a 863c 54e6 1e3c bd69 43bb fcae 09bb
00000320: 7620 a1bc a287 e93b 7e08 c43b 81af 1c3a
00000330: 3154 f3bb 035c 423c 7370 8f3b 35f5 273b
00000340: 38d1 2abb 07d0 dcba 3a07 1f3b 58a7 2eba
00000350: c737 513a 236e 8fbc facb 2e3c 8665 90bc
00000360: 7b84 88bc c4b2 2a3a 1d21 703b ebce 503b
00000370: 8fc5 6d3b 91ab 793a 323c 60bb 02b1 92ba
00000380: 73fd 613b b050 7dbb 3ed1 d93b 4e81 c7b9
00000390: b894 3aba b972 043b 12d5 babb b67a b2b9
000003a0: 51f6 453c 48da 3dbb 3172 7abc 2371 813c
000003b0: 5335 e1b9 753d 0d3c c0cb 3a3c 5996 02bc
000003c0: b9c2 95ba 0d3a 06bc 01a9 78bc 1f25 c43a
000003d0: 4922 37bb e978 82bc dff5 59bb 9329 643b
000003e0: 1bd5 013b 1849 953c 549d 34bc dc24 093a
000003f0: c2e3 d4ba 4ee5 cb3a 59fe ba3b 4502 2cbc
0.0076552248 -0.0063366145 -0.016380304 0.002691836 -0.002236896 0.0045490772 -0.014311847 0.0037934133
-0.003904481 -0.008256938 0.012105648 -0.013579718 -0.008820132 0.0010684403 -0.019934028 0.011501768
-0.0023247402 -0.0032559815 0.016285097 -0.0006095359 -0.0038610918 -0.00762538 0.0017788596 -0.0059369225
-0.006624264 -0.010642734 0.0020668313 0.0065708254 -0.0006452599 0.0054375078 -0.0025232097 -0.0088958545
-0.0021496257 -0.016200876 0.0031159855 0.0014544376 -0.010782535 0.0026050517 0.013402339 0.008511416
0.004058974 0.00033745635 0.008859619 0.009981067 -0.01366071 0.0068341563 0.0013993306 -0.00236265
0.005880497 -0.0019252284 -0.0017841832 0.0026780844 0.0030148057 0.0019442749 -0.006209174 0.010603191
0.0071497858 -0.008674386 -0.014661469 0.0124761 -0.00443249 -0.0048070494 0.013177564 -0.0033465996
-0.017436262 -0.0025096792 -0.0005516522 -0.0056351344 -0.010092023 -0.002068401 0.0039022418 0.018181805
0.010129893 -0.010996804 -0.0026356187 0.002765811 0.0029614458 -0.0021452613 -0.010183293 0.002383632
-0.0075527816 0.0056423247 0.007606473 -0.016445898 0.018531887 -0.010303234 0.013568491 -0.009609174
0.018259216 -0.0038350276 -0.019205539 -0.0082495175 -0.005502697 -0.011914995 0.019665586 0.010793959
-0.0027247325 0.007906625 0.0014884186 0.0019966809 -0.006327494 0.00028397836 0.0052592466 -0.0036378289
0.0031481383 -0.0010525999 -0.020377215 -0.007980667 -0.014253533 0.0005950548 0.0038329293 -0.008511662
-0.010732894 -0.00067103346 -0.018586643 0.0006028963 -0.011093949 -0.0029605306 0.0066690505 -0.0022150516
-0.0022650817 0.012167897 0.0027061098 -0.0019758746 0.005349223 -0.014863753 0.005369135 -0.013114998
0.008929332 0.008967229 0.015936011 -0.0032322207 0.0014330831 0.0008199479 0.0039164247 -0.009164195
-0.0035271342 0.0015852201 -0.00023747161 -0.01561321 -0.0031615302 0.012250915 0.0065252907 0.00420794
-0.004485248 0.009620402 0.006360852 0.004429498 0.0053897547 0.0017093482 0.010120458 -0.007852623
0.019648349 0.011380309 -0.008798939 -0.008038407 0.005185918 -0.0057165027 0.016861705 -0.002152305
-0.0023117093 -0.0054325745 0.009197516 0.015712447 0.011615205 0.013223069 0.002166625 -0.0020794172
-0.007878506 0.010048076 0.0018400804 -0.0005648132 -0.0021204655 -0.0067615598 -0.0037245199 -0.005204584
0.005969118 0.0048150728 -0.0017498983 0.0010377989 -0.014130178 0.008892092 0.008172792 -0.008311605
-0.003014155 -0.00696349 -0.011975331 -0.0054373792 -0.002602846 0.0034471606 0.0022916065 -0.0059373765
-0.014330725 -0.01304436 0.012284725 -0.009931011 0.01638537 0.009698469 -0.0029817664 -0.002100884
-0.019668799 0.0071267644 0.0059824577 0.000597708 -0.007425808 0.011862758 0.0043774187 0.0025628333
-0.0026064645 -0.0016846665 0.0024265782 -0.00066625094 0.0007981029 -0.017508572 0.010668749 -0.017626535
-0.016664734 0.00065116235 0.003664083 0.0031861614 0.0036281084 0.00095241616 -0.0034215567 -0.0011191668
0.0034483343 -0.003865283 0.006647258 -0.00038052577 -0.0007117498 0.0020209982 -0.0057016695 -0.00034042232
0.012082652 -0.0028969217 -0.015286014 0.015801018 -0.00042955074 0.0086206095 0.011401117 -0.007970416
-0.001142583 -0.008192551 -0.015177012 0.0014964676 -0.002794402 -0.015926795 -0.0033258123 0.003481482
0.0019810859 0.01822333 -0.011023838 0.0005231628 -0.0016242194 0.0015556009 0.00570659 -0.010498588
